…
"\n","# Move both the encoder and the decoder to the selected device\n","encoder.to(device)"],"metadata":{"colab":{"base_uri":"https://localhost:8080/"},"id":"q8DCv8omQQzL","executionInfo":{"status":"ok","timestamp":1746026071405,"user_tz":-180,"elapsed":17,"user":{"displayName":"Олександр Шевчик","userId":"03276223199566209967"}},"outputId":"a59e9210-9c24-4df5-c61c-8bd7520899d6"},"execution_count":null,"outputs":[{"output_type":"stream","name":"stdout","text":["Selected device: cpu\n"]},{"output_type":"execute_result","data":{"text/plain":["Encoder(\n","  (encoder_cnn): Sequential(\n","    (0): Conv2d(1, 8, kernel_size=(3, 3), stride=(2, 2), padding=(1, 1))\n","    (1): ReLU(inplace=True)\n","    (2): Conv2d(8, 16, kernel_size=(3, 3), stride=(2, 2), padding=(1, 1))\n","    (3): BatchNorm2d(16, eps=1e-05, momentum=0.1, affine=True, track_running_stats=True)\n","    (4): ReLU(inplace=True)\n","    (5): Conv2d(16, 32, kernel_size=(3, 3), stride=(2, 2))\n","    (6): ReLU(inplace=True)\n","  )\n","  (flatten): Flatten(start_dim=1, end_dim=-1)\n","  (encoder_lin): Sequential(\n","    (0): Linear(in_features=288, out_features=128, bias=True)\n","    (1): ReLU(inplace=True)\n","    (2): Linear(in_features=128, out_features=4, bias=True)\n","  )\n",")"]},"metadata":{},"execution_count":12}]},{"cell_type":"code","source":["decoder.to(device)"],"metadata":{"colab":{"base_uri":"https://localhost:8080/"},"id":"27D2QDLbQQ3p","executionInfo":{"status":"ok","timestamp":1746026073625,"user_tz":-180,"elapsed":5,"user":{"displayName":"Олександр Шевчик","userId":"03276223199566209967"}},"outputId":"54758f28-4354-4bcb-d1f1-d6c0e01400d6"},"execution_count":null,"outputs":[{"output_type":"execute_result","data":{"text/plain":["Decoder(\n","  (decoder_lin): Sequential(\n","    (0): Linear(in_features=4, out_features=128, bias=True)\n","    (1): ReLU(inplace=True)\n","    (2): Linear(in_features=128, out_features=784, bias=True)\n","    (3): ReLU(inplace=True)\n","  )\n","  (unflatten): Unflatten(dim=1, unflattened_size=(16, 7, 7))\n","  (decoder_conv): Sequential(\n","    (0): ConvTranspose2d(16, 8, kernel_size=(4, 4), stride=(2, 2), padding=(1, 1))\n","    (1): BatchNorm2d(8, eps=1e-05, momentum=0.1, affine=True, track_running_stats=True)\n","    (2): ReLU(inplace=True)\n","    (3): ConvTranspose2d(8, 1, kernel_size=(4, 4), stride=(2, 2), padding=(1, 1))\n","  )\n",")"]},"metadata":{},"execution_count":13}]},{"cell_type":"code","source":["def train_epoch(encoder, decoder, device, dataloader, loss_fn, optimizer):\n","    # Set train mode for both the encoder and the decoder\n","    encoder.train()\n","    decoder.train()\n","    train_loss = []\n","    # Iterate the dataloader (we do not need
…
